…
pochs=200, no_cuda=False, log_freq=1, patience=10, num_workers=4, seed=42, weight_decay=0.0, adam_beta1=0.9, adam_beta2=0.999, gpu_id='0', variance=5, model_type='Caser', max_seq_length=50, hidden_size=64, num_hidden_layers=2, hidden_act='gelu', num_attention_heads=1, attention_probs_dropout_prob=0.5, hidden_dropout_prob=0.5, initializer_range=0.02, nh=8, nv=4, reg_weight=0.0001, cuda_condition=True, data_file='./data/Beauty.txt', item_size=12102, checkpoint_path='output/Caser_Beauty.pt', same_target_path='./data/Beauty_same_target.npy')
2024-12-03 15:20:10,429 - CaserModel(
  (item_embeddings): Embedding(12102, 64, padding_idx=0)
  (position_embeddings): Embedding(50, 64)
  (user_embeddings): Embedding(22364, 64, padding_idx=0)
  (conv_v): Conv2d(1, 4, kernel_size=(50, 1), stride=(1, 1))
  (conv_h): ModuleList(
    (0): Conv2d(1, 8, kernel_size=(1, 64), stride=(1, 1))
    (1): Conv2d(1, 8, kernel_size=(2, 64), stride=(1, 1))
    (2): Conv2d(1, 8, kernel_size=(3, 64), stride=(1, 1))
    (3): Conv2d(1, 8, kernel_size=(4, 64), stride=(1, 1))
    (4): Conv2d(1, 8, kernel_size=(5, 64), stride=(1, 1))
    (5): Conv2d(1, 8, kernel_size=(6, 64), stride=(1, 1))
    (6): Conv2d(1, 8, kernel_size=(7, 64), stride=(1, 1))
    (7): Conv2d(1, 8, kernel_size=(8, 64), stride=(1, 1))
    (8): Conv2d(1, 8, kernel_size=(9, 64), stride=(1, 1))
    (9): Conv2d(1, 8, kernel_size=(10, 64), stride=(1, 1))
    (10): Conv2d(1, 8, kernel_size=(11, 64), stride=(1, 1))
    (11): Conv2d(1, 8, kernel_size=(12, 64), stride=(1, 1))
    (12): Conv2d(1, 8, kernel_size=(13, 64), stride=(1, 1))
    (13): Conv2d(1, 8, kernel_size=(14, 64), stride=(1, 1))
    (14): Conv2d(1, 8, kernel_size=(15, 64), stride=(1, 1))
    (15): Conv2d(1, 8, kernel_size=(16, 64), stride=(1, 1))
    (16): Conv2d(1, 8, kernel_size=(17, 64), stride=(1, 1))
    (17): Conv2d(1, 8, kernel_size=(18, 64), stride=(1, 1))
    (18): Conv2d(1, 8, kernel_size=(19, 64), stride=(1, 1))
    (19): Conv2d(1, 8, kernel_size=(20, 64), stride=(1, 1))
    (20): Conv2d(1, 8, kernel_size=(21, 64), stride=(1, 1))
    (21): Conv2d(1, 8, kernel_size=(22, 64), stride=(1, 1))
    (22): Conv2d(1, 8, kernel_size=(23, 64), stride=(1, 1))
    (23): Conv2d(1, 8, kernel_size=(24, 64), stride=(1, 1))
    (24): Conv2d(1, 8, kernel_size=(25, 64), stride=(1, 1))
    (25): Conv2d(1, 8, kernel_size=(26, 64), stride=(1, 1))
    (26): Conv2d(1, 8, kernel_size=(27, 64), stride=(1, 1))
    (27): Conv2d(1, 8, kernel_size=(28, 64), stride=(1, 1))
    (28): Conv2d(1, 8, kernel_size=(29, 64), stride=(1, 1))
    (29): Conv2d(1, 8, kernel_size=(30, 64), stride=(1, 1))
    (30): Conv2d(1, 8, kernel_size=(31, 64), stride=(1, 1))
    (31): Conv2d(1, 8, kernel_size=(32, 64), stride=(1, 1))
    (32): Conv2d(1, 8, kernel_size=(33, 64), stride=(1, 1))
    (33): Conv2d(1, 8, kernel_size=(34, 64), stride=(1, 1))
    (34): Conv2d(1, 8, kernel_size=(35, 64), stride=(1, 1))
    (35): Conv2d(1, 8, kernel_size=(36, 64), stride=(1, 1))
    (36): Conv2d(1, 8, kernel_size=(37, 64), stride=(1, 1))
    (37): Conv2d(1, 8, kernel_size=(38, 64), stride=(1, 1))
    (38): Conv2d(1, 8, kernel_size=(39, 64), stride=(1, 1))
    (39): Conv2d(1, 8, kernel_size=(40, 64), stride=(1, 1))
    (40): Conv2d(1, 8, kernel_size=(41, 64), stride=(1, 1))
    (41): Conv2d(1, 8, kernel_size=(42, 64), stride=(1, 1))
    (42): Conv2d(1, 8, kernel_size=(43, 64), stride=(1, 1))
    (43): Conv2d(1, 8, kernel_size=(44, 64), stride=(1, 1))
    (44): Conv2d(1, 8, kernel_size=(45, 64), stride=(1, 1))
    (45): Conv2d(1, 8, kernel_size=(46, 64), stride=(1, 1))
    (46): Conv2d(1, 8, kernel_size=(47, 64), stride=(1, 1))
    (47): Conv2d(1, 8, kernel_size=(48, 64), stride=(1, 1))
    (48): Conv2d(1, 8, kernel_size=(49, 64), stride=(1, 1))
    (49): Conv2d(1, 8, kernel_size=(50, 64), stride=(1, 1))
  )
  (fc1): Linear(in_features=656, out_features=64, bias=True)
  (fc2): Linear(in_features=128, out_features=64, bias=True)
  (dropout): Dropout(p=0.5, inplace=False)
  (ac_conv): ReLU()
  (ac_fc): ReLU()
)
2024-12-03 15:20:11,823 - Total Parameters: 2912732
2024-12-03 15:21:00,593 - {'epoch': 0, 'rec_loss': '1.2315'}
2024-12-03 15:21:06,225 - {'Epoch': 0, 'HR@5': '0.0080', 'NDCG@5': '0.0049', 'HR@10': '0.0124', 'NDCG@10': '0.0064', 'HR@20': '0.0204', 'NDCG@20': '0.0084'}
2024-12-03 15:21:06,227 - Validation score increased.  Saving model ...
…
