…
=0.001, batch_size=256, epochs=200, no_cuda=False, log_freq=1, patience=10, num_workers=4, seed=42, weight_decay=0.0, adam_beta1=0.9, adam_beta2=0.999, gpu_id='0', variance=5, model_type='FMLPRec', max_seq_length=50, hidden_size=64, num_hidden_layers=2, hidden_act='gelu', num_attention_heads=1, attention_probs_dropout_prob=0.5, hidden_dropout_prob=0.5, initializer_range=0.02, cuda_condition=True, data_file='./data/Beauty.txt', item_size=12102, checkpoint_path='output/FMLPRec_Beauty.pt', same_target_path='./data/Beauty_same_target.npy')
2024-12-03 10:53:46,026 - FMLPRecModel(
  (item_embeddings): Embedding(12102, 64, padding_idx=0)
  (position_embeddings): Embedding(50, 64)
  (LayerNorm): LayerNorm()
  (dropout): Dropout(p=0.5, inplace=False)
  (item_encoder): FMLPRecEncoder(
    (blocks): ModuleList(
      (0): FMLPRecBlock(
        (layer): FMLPRecLayer(
          (out_dropout): Dropout(p=0.5, inplace=False)
          (LayerNorm): LayerNorm()
        )
        (feed_forward): FeedForward(
          (dense_1): Linear(in_features=64, out_features=256, bias=True)
          (dense_2): Linear(in_features=256, out_features=64, bias=True)
          (LayerNorm): LayerNorm()
          (dropout): Dropout(p=0.5, inplace=False)
        )
      )
      (1): FMLPRecBlock(
        (layer): FMLPRecLayer(
          (out_dropout): Dropout(p=0.5, inplace=False)
          (LayerNorm): LayerNorm()
        )
        (feed_forward): FeedForward(
          (dense_1): Linear(in_features=64, out_features=256, bias=True)
          (dense_2): Linear(in_features=256, out_features=64, bias=True)
          (LayerNorm): LayerNorm()
          (dropout): Dropout(p=0.5, inplace=False)
        )
      )
    )
  )
)
2024-12-03 10:53:47,393 - Total Parameters: 851200
2024-12-03 10:53:50,849 - {'epoch': 0, 'rec_loss': '1.2386'}
2024-12-03 10:53:54,525 - {'Epoch': 0, 'HR@5': '0.0106', 'NDCG@5': '0.0070', 'HR@10': '0.0182', 'NDCG@10': '0.0094', 'HR@20': '0.0299', 'NDCG@20': '0.0123'}
2024-12-03 10:53:54,526 - Validation score increased.  Saving model ...
…
