…
r=0.001, batch_size=256, epochs=200, no_cuda=False, log_freq=1, patience=10, num_workers=4, seed=42, weight_decay=0.0, adam_beta1=0.9, adam_beta2=0.999, gpu_id='0', variance=5, model_type='FMLPRec', max_seq_length=50, hidden_size=64, num_hidden_layers=2, hidden_act='gelu', num_attention_heads=1, attention_probs_dropout_prob=0.5, hidden_dropout_prob=0.5, initializer_range=0.02, cuda_condition=True, data_file='./data/LastFM.txt', item_size=3647, checkpoint_path='output/FMLPRec_LastFM.pt', same_target_path='./data/LastFM_same_target.npy')
2024-12-03 20:39:38,559 - FMLPRecModel(
  (item_embeddings): Embedding(3647, 64, padding_idx=0)
  (position_embeddings): Embedding(50, 64)
  (LayerNorm): LayerNorm()
  (dropout): Dropout(p=0.5, inplace=False)
  (item_encoder): FMLPRecEncoder(
    (blocks): ModuleList(
      (0): FMLPRecBlock(
        (layer): FMLPRecLayer(
          (out_dropout): Dropout(p=0.5, inplace=False)
          (LayerNorm): LayerNorm()
        )
        (feed_forward): FeedForward(
          (dense_1): Linear(in_features=64, out_features=256, bias=True)
          (dense_2): Linear(in_features=256, out_features=64, bias=True)
          (LayerNorm): LayerNorm()
          (dropout): Dropout(p=0.5, inplace=False)
        )
      )
      (1): FMLPRecBlock(
        (layer): FMLPRecLayer(
          (out_dropout): Dropout(p=0.5, inplace=False)
          (LayerNorm): LayerNorm()
        )
        (feed_forward): FeedForward(
          (dense_1): Linear(in_features=64, out_features=256, bias=True)
          (dense_2): Linear(in_features=256, out_features=64, bias=True)
          (LayerNorm): LayerNorm()
          (dropout): Dropout(p=0.5, inplace=False)
        )
      )
    )
  )
)
2024-12-03 20:39:39,949 - Total Parameters: 310080
2024-12-03 20:39:41,357 - {'epoch': 0, 'rec_loss': '1.3341'}
2024-12-03 20:39:41,640 - {'Epoch': 0, 'HR@5': '0.0156', 'NDCG@5': '0.0108', 'HR@10': '0.0284', 'NDCG@10': '0.0148', 'HR@20': '0.0587', 'NDCG@20': '0.0224'}
2024-12-03 20:39:41,640 - Validation score increased.  Saving model ...
…
